…
s="line">43</span><br><span class="line">44</span><br><span class="line">45</span><br><span class="line">46</span><br><span class="line">47</span><br><span class="line">48</span><br><span class="line">49</span><br><span class="line">50</span><br><span class="line">51</span><br><span class="line">52</span><br><span class="line">53</span><br><span class="line">54</span><br><span class="line">55</span><br><span class="line">56</span><br><span class="line">57</span><br><span class="line">58</span><br></pre></td><td class="code"><pre><code class="hljs bash">Expert(<br>  (net): Sequential(<br>    (0): Linear(in_features=300, out_features=1200, bias=True)<br>    (1): ReLU()<br>    (2): Linear(in_features=1200, out_features=10, bias=True)<br>  )<br>)<br>-----<br>x[i] shape torch.Size([300])<br>x[i].unsqueeze(0) shape torch.Size([1, 300])<br>expert_outputs shape torch.Size([32, 2, 10])<br>第i个batch 0<br>Top2专家 0<br>Expert(<br>  (net): Sequential(<br>    (0): Linear(in_features=300, out_features=1200, bias=True)<br>    (1): ReLU()<br>    (2): Linear(in_features=1200, out_features=10, bias=True)<br>  )<br>)<br>-----<br>x[i] shape torch.Size([300])<br>x[i].unsqueeze(0) shape torch.Size([1, 300])<br>expert_outputs shape torch.Size([32, 2, 10])<br>Top2专家 1<br>Expert(<br>  (net): Sequential(<br>    (0): Linear(in_features=300, out_features=1200, bias=True)<br>    (1): ReLU()<br>    (2): Linear(in_features=1200, out_features=10, bias=True)<br>  )<br>)<br>-----<br>x[i] shape torch.Size([300])<br>x[i].unsqueeze(0) shape torch.Size([1, 300])<br>expert_outputs shape torch.Size([32, 2, 10])<br>第i个batch_size 26<br>Top2专家 2<br>Expert(<br>  (net): Sequential(<br>    (0): Linear(in_features=300, out_features=1200, bias=True)<br>    (1): ReLU()<br>    (2): Linear(in_features=1200, out_features=10, bias=True)<br>  )<br>)<br>-----<br>x[i] shape torch.Size([300])<br>x[i].unsqueeze(0) shape torch.Size([1, 300])<br>expert_outputs shape torch.Size([32, 2, 10])<br>Top2专家 3<br>Expert(<br>  (net): Sequential(<br>    (0): Linear(in_features=300, out_features=1200, bias=True)<br>    (1): ReLU()<br>    (2): Linear(in_features=1200, out_features=10, bias=True)<br>  )<br>)<br>-----<br></code></pre></td></tr></table></figure><h1 id="Mixtral-MoE源码"><a href="#Mixtral-MoE源码" class="headerlink" title="Mixtral MoE源码"></a>Mixtral MoE源码</h1><p>同时附上了Transformer中Mixtral的MoE源码：</p><p>首先是Mixtral的单个专家模块，它将输入层经过一个被激活过的线性层，再经过两个线性层。</p><figure class="highlight python"><table><tr><td class="gutter"><pre><span class="line">1<
…
